models/reg_hs_64_do_0.2_nl_2_lr_0.0001_opt_adam_05-09-2259.pt (torch, 276495 bytes, 11 tensors)

weight f4 [64, 17]
000000 6d 1e 97 3d 4c a4 38 be 22 12 4b be cf da b1 3d
       0.0737885 -0.18031424 -0.19831136 0.086843126
000010 c0 ec 55 3e c8 67 06 be 8a 12 2e be c8 50 34 3e
       0.20891094 -0.13125527 -0.1699926 0.1760894
000020 a2 6b 4b be f5 b6 02 3e b0 62 42 be 95 15 02 be
       -0.19865277 0.12765105 -0.18982959 -0.12703545
000030 6b c0 f0 bd ba 17 82 3e f8 83 fe bd 05 da d4 3d
       -0.11755451 0.25408727 -0.12427515 0.103931464
000040 ca 6e 0e 3e fe 73 35 be 11 66 83 be 9d 5a 14 3e
       0.1390945 -0.17720029 -0.25663808 0.14487691
000050 c1 51 7f bd 09 d7 45 be 3d 9d 4b 3b f5 2f 55 3e
       -0.062333826 -0.1932031 0.0031069063 0.20819075
000060 37 10 08 be 1d 96 40 3e b9 45 ec 3d 3b 0b 01 be
       -0.13287435 0.18807264 0.11536736 -0.1260194
000070 50 01 1d be 8f e5 31 ba ee 3b 08 be 20 ab 4b be
       -0.15332532 -0.0006786221 -0.13304111 -0.19889498
000080 ca bc a6 3e 5e 74 c5 bd 96 17 9e 3d f6 d8 93 3c
       0.3256591 -0.09641336 0.077193424 0.018047791
000090 5c f0 c0 bd a4 96 14 bd c2 e4 bf 3d f5 a2 ee 3c
       -0.09420845 -0.036276475 0.09369804 0.029130438
0000a0 ac 9f 19 be d2 41 80 3d 06 a5 28 bd fa 57 03 3e
       -0.15002316 0.06262554 -0.041173004 0.12826529
0000b0 49 ff 74 be 2a e4 d2 3d 60 9b 5b 3e 25 f4 49 3e
       -0.23925509 0.10297425 0.2144599 0.1972204
0000c0 22 e4 75 3e 18 b7 fd 3d f1 d8 97 3d 1e e0 7c 3e
       0.24012807 0.12388438 0.07414425 0.24694869
0000d0 92 e3 15 be e7 72 35 3d f7 a1 6d 3e e7 37 4f bc
       -0.14637592 0.044299033 0.23206316 -0.0126476055
0000e0 fb d2 35 bd 3a 7d 62 3e 10 62 9a bc ba 57 a6 bd
       -0.04439066 0.22118083 -0.018845588 -0.08122201
0000f0 45 29 0a be 54 e9 62 3e 56 f0 bc 3b dc 72 52 3e
       -0.13492306 0.2215932 0.005765955 0.20551628
000100 78 3e 7d bd 16 85 0b be 33 33 32 3e df 69 68 be
       -0.061827153 -0.13624987 0.17402343 -0.22696637
000110 2e 0b 14 bd 35 df ae 3d 54 25 2f be 61 34 00 3e
       -0.036143474 0.08538667 -0.17104083 0.12519981
000120 a0 ac 04 3e fb 99 9d bd 4e 90 75 bd dd 63 50 3e
       0.12956476 -0.07695385 -0.059952073 0.20350595
000130 ee a0 03 bc 75 8e 86 3d f3 ac 25 3e aa b3 1f 3e
       -0.008033974 0.0657014 0.16179256 0.1559588
000140 13 1c 0f be 0e 0b 45 be 34 bf 54 be 22 61 85 3e
       -0.13975553 -0.19242498 -0.20776063 0.2605067
000150 88 68 58 be 34 ed 6f bd b8 86 53 3d e4 b2 59 bd
       -0.21133626 -0.058575824 0.05164215 -0.05314912
000160 7a 29 2f be 40 c8 5d bb 50 32 2e be 2c 31 93 3d
       -0.17105666 -0.0033841282 -0.1701138 0.07187113
000170 80 50 24 3e d8 40 24 3d 64 12 18 3e f8 d4 8d bc
       0.16046333 0.040100902 0.14850765 -0.017313465
000180 70 1a fd 3c 12 27 20 be 00 66 9a 3c 75 67 47 be
       0.030896395 -0.15639904 0.018847466 -0.1947306
000190 0e e0 00 3e 90 36 88 3d 75 07 04 3e e1 b6 74 be
       0.1258547 0.06651032 0.1289347 -0.23897888
0001a0 33 c2 02 be 76 94 5f be bf d9 42 be fa 52 6b 3e
       -0.12769394 -0.21833977 -0.19028376 0.22980872
0001b0 f8 31 1c 3e c3 51 3a 3e a3 9f dc bd 63 29 c0 bc
       0.15253437 0.18195252 -0.10772636 -0.023457235
0001c0 31 fd 1e 3e ba 01 a8 3d 24 a7 8d bd 4a 48 d7 3d
       0.15526272 0.08203454 -0.06916645 0.10511835
0001d0 3f 3c 32 be 5e 75 6e be 3a 73 6e bd c8 6c 0a 3d
       -0.17405795 -0.2328696 -0.058215357 0.033795148
0001e0 d5 89 09 be af b9 2b be d7 f3 01 be d2 e6 29 be
       -0.13431485 -0.16770051 -0.12690674 -0.16591957
0001f0 c7 a7 db bd b3 e7 f0 3d bb 7c 3b be 57 1e c4 bd
       -0.1072536 0.11762943 -0.183093 -0.09576099
000200 a5 e0 a9 3d 40 b3 0a be 8a d5 5d 3d 3c d4 83 3e
       0.08294801 -0.13544941 0.054158725 0.2574786
000210 b0 f4 ab 3d 5c c4 70 3d 1a 73 92 3e 7e 5b 01 3e
       0.0839628 0.058781013 0.2860344 0.12632558
000220 10 84 82 3d 5a 89 9c bd 9b 1b 21 be 0c 7b 08 be
       0.06372845 -0.07643385 -0.15733187 -0.13328189
000230 fa 68 53 3e ae fb 1f be ab c9 ce bd d4 92 c5 3c
       0.20645514 -0.15623352 -0.10097059 0.024117865
000240 42 d9 80 3d 98 ac 6e 3e 53 a2 2c be 77 e8 c8 bd
       0.06291439 0.23308027 -0.16858797 -0.09809964
000250 66 2a 85 3e 49 80 d4 bd ae b9 72 be c0 7a 01 3e
       0.2600891 -0.10376031 -0.23703644 0.12644482
000260 d7 3c 8b 3d 97 0b 4d be 8c b6 8d 3d b4 ef e7 3d
       0.06798714 -0.20023952 0.06919584 0.113250166
000270 2e fb 99 bd 78 84 f3 3d aa 49 fb bd dc c2 b0 bd
       -0.07518612 0.11890501 -0.1226991 -0.086309165
000280 48 67 f3 bc 80 f6 81 3d 54 4a 9b 3d 2a 76 84 bd
       -0.029712334 0.06345844 0.07582536 -0.064678505
000290 60 a6 46 bc 14 22 60 bd 52 02 d0 bd 9c c4 5f be
       -0.012124628 -0.05472 -0.101566926 -0.21852344
0002a0 df cd f8 bd 44 b7 94 3d 3c fc 55 be e1 2e 15 3e
       -0.12148642 0.07261518 -0.20897001 0.14568664
0002b0 13 e1 0b be a2 98 12 3e 1f af 2b 3e 7d 38 28 be
       -0.13660078 0.14316037 0.16766022 -0.16427799
0002c0 c9 75 73 3d 81 98 84 3d bc b0 1b 3e 9f d5 03 be
       0.0594385 0.064744 0.15204138 -0.12874459
0002d0 0f 80 90 be e0 23 07 3e 4c 54 e4 3d 3e b8 4a bd
       -0.282227 0.13197279 0.11148891 -0.049492113
0002e0 21 27 a2 3d 6e 52 dc bd 54 83 a4 3b 39 b2 84 3d
       0.079176195 -0.1075791 0.0050205383 0.06479306
0002f0 69 0a b8 3b 68 5e c6 bd 37 41 4e be 75 fb 4a 3e
       0.0056164754 -0.09685975 -0.20142065 0.19822486
000300 8b 65 5e 3e 73 01 55 be 65 37 90 bd 83 68 f5 bd
       0.21718423 -0.20801334 -0.07041816 -0.11982825
000310 db 27 ba 3d ff 4d 6d 3d c4 64 59 3e c6 72 5f bd
       0.09089633 0.05793571 0.21229845 -0.054552816
000320 11 ff 68 3e d8 a5 c4 bd 52 8b ac bd c2 59 1e 3e
       0.2275355 -0.09601945 -0.08425011 0.15463927
000330 a4 39 46 3e ca 0a 02 be 36 81 04 bc 45 62 17 3d
       0.19357926 -0.12699428 -0.008087447 0.03695895
000340 57 8b 8b 3d 6f ca ca 3d 21 e7 29 3e c8 dc 05 3e
       0.06813686 0.099018924 0.16592075 0.13072503
000350 5a 2f 07 be 6c b4 23 3d 63 c4 0f 39 58 d0 4b 3e
       -0.13201657 0.039966986 0.00013710702 0.19903696
000360 d4 ff 55 bd 00 f2 c9 bd 29 29 a7 3c 7a 8c 58 3c
       -0.05224593 -0.09860611 0.020405369 0.013217086
000370 c4 11 b5 3b 14 f3 1c 3e bb 5a 85 3d 39 b2 d4 3d
       0.0055257995 0.15327102 0.06511446 0.10385556
000380 0b 17 58 3e cd 2a 58 3e cd f8 b9 bd 1a 58 29 3d
       0.2110254 0.21110077 -0.09080658 0.041343786
000390 c5 55 4a be f7 43 b9 bd cd cb 3d 3e 75 8b 92 3d
       -0.19759281 -0.090461664 0.18534775 0.071555056
0003a0 9b 3d ef bd 6b 5c 14 be 68 1c e2 bd b1 4c 18 3c
       -0.11681672 -0.1448838 -0.11040574 0.009295628
0003b0 4f fa 22 3e f2 be 64 3e b8 4c 14 3e b4 94 13 be
       0.15915798 0.22338465 0.14482391 -0.14412194
0003c0 fa 13 0f 3e a0 3b bb 3b 39 3a c1 3b d8 f3 0c bc
       0.13972464 0.005713895 0.0058968333 -0.008603059
0003d0 c1 41 1b bd 33 1d db 3b 02 39 12 3d 63 eb 88 3d
       -0.037904505 0.0066868304 0.035698898 0.066855215
0003e0 ce 9d 45 3d 16 5d 55 3e 77 00 4c bd e2 ae 45 be
       0.048246197 0.2083629 -0.04980513 -0.19304994
0003f0 6c 48 69 3c 6c c8 b9 bd d1 3f bd bd 74 00 f7 3d
       0.014238458 -0.090714306 -0.09240688 0.12060633

bias f4 [64]
000000 25 d3 91 3d 85 d2 59 3e 5a c3 75 be 77 ac f2 3d
       0.07120351 0.21271713 -0.24000302 0.11849301
000010 9c da e2 3c 06 f9 e5 bd 48 d4 de bd 37 aa 3a 3c
       0.027692132 -0.11229138 -0.10880333 0.011393121
000020 7f e2 01 3e ba 34 90 bd 7a c8 66 3d 3f 63 58 be
       0.12684058 -0.07041307 0.056343533 -0.2113161
000030 0e a7 7b be a2 81 ff bc 91 5d 69 be 5a b1 33 3e
       -0.24575445 -0.031189743 -0.22789599 0.17548123
000040 80 50 23 3e af 51 ab 3d 49 76 82 3d a9 c4 46 3e
       0.15948677 0.08365189 0.06370217 0.19410957
000050 dc 1a 13 3e 80 6f 30 be 32 10 f8 bc 64 93 11 3e
       0.14365715 -0.17230034 -0.03028116 0.14216381
000060 67 3c 33 3e b9 ce 3d 3e 9e 54 ef 3d 5b 3d 11 be
       0.1750351 0.1853589 0.11686061 -0.14183562
000070 e2 a0 49 bd d4 69 d5 3d b4 23 44 be f2 3a 66 be
       -0.049225695 0.10420576 -0.19154245 -0.22483423
000080 a7 3d 69 bd 20 ee 1c 3d fa 33 dc b8 63 32 42 be
       -0.056943562 0.03831303 -0.00010500099 -0.18964534
000090 d2 a3 e2 3d ea fa 38 be 5e 2f 34 be 7e aa 2a 3e
       0.110664025 -0.18064466 -0.17596194 0.166666
0000a0 64 db b3 3c 53 3f 22 bd 5c 58 fd bd c9 84 32 3e
       0.0219552 -0.039611172 -0.12370369 0.17433466
0000b0 80 5d db ba a8 57 5f 3d a5 0c 32 3e eb 13 eb 3d
       -0.0016736239 0.054526955 0.17387636 0.114784084
0000c0 e4 68 2c be cb 2b 64 be 76 e8 bd 3c 16 65 e9 bd
       -0.16836888 -0.2228233 0.023182135 -0.11396234
0000d0 41 3d e7 bd cc 39 4d bd 40 5b 69 be 82 98 7b be
       -0.1129098 -0.050103948 -0.22788715 -0.24569896
0000e0 3b 55 6e be 07 d8 0a be 01 8f b8 3c ee fb 4f 3d
       -0.232747 -0.1355897 0.022529127 0.05077737
0000f0 0f b9 70 3e c8 af c0 3c 32 ae 14 3d 73 c4 5b be
       0.23508094 0.023521319 0.036298938 -0.21461658

weight_ih_l0 f4 [256, 64]
000000 f7 df 33 3e 1f 99 86 3d 82 af b2 3d 22 43 7d 3d
       0.17565905 0.06572174 0.08724882 0.0618316
000010 2f f2 75 3d 00 5c 1e 3b 96 26 99 bd ea ee 03 3e
       0.060045417 0.0024163723 -0.07478063 0.12884107
000020 c8 57 a1 3d 6c 22 10 bd 97 24 09 3c 1c 30 22 bd
       0.07878071 -0.035189077 0.00837054 -0.039596662
000030 a7 2d 25 3e 0a dc 4b bd 12 15 01 be 3e 37 1e bd
       0.16130696 -0.049770392 -0.12605694 -0.0386269
000040 99 e0 23 3d d8 7c 29 3e 6a 35 1d bd 52 5d d2 3d
       0.040009115 0.1655153 -0.038381018 0.10271706
000050 ac 5d 91 bd c0 f5 08 be 78 4d 2b 3d 0a 6d 84 bd
       -0.070979446 -0.13374996 0.041821927 -0.0646611
000060 3f 76 18 be fb ac f2 3d af 25 7b bd 47 36 b7 3d
       -0.14888857 0.118494 -0.061315235 0.089458995
000070 01 bf 45 3e 66 64 a7 bd b4 a0 a8 3d ea 15 d0 3d
       0.19311143 -0.08173446 0.08233777 0.1016043
000080 1e 87 8c bd 4c 35 0f be 16 8b 80 3d dd b1 ff 3c
       -0.06861709 -0.13985175 0.062765285 0.031212742
000090 33 39 b4 3d 0c 1d 14 3e 8f a9 fd bd fa 87 1c 3d
       0.087999724 0.14464206 -0.12385856 0.038215615
0000a0 85 ad 31 bc cf 37 fe 3d 97 e9 25 bd 10 08 52 bd
       -0.010844593 0.124129884 -0.04050597 -0.05127722
0000b0 94 c4 4b bd b0 b9 84 3c dd 5d 86 3d 5d c1 74 3d
       -0.04974802 0.016201824 0.06560872 0.059754718
0000c0 35 93 e7 3d 8f 0a a9 bc 9d 28 33 bd 96 f4 c8 3d
       0.113073744 -0.020634918 -0.043739904 0.09812276
0000d0 8a ba 21 be 3b 20 8b 3d 5e 98 8d 3d 58 b2 f3 3d
       -0.15793815 0.06793257 0.06913827 0.11899251
0000e0 c0 1b 4d bb 33 64 25 3d 84 3a 22 3d 03 4d d1 bc
       -0.0031297058 0.04037876 0.039606586 -0.025549417
0000f0 55 f0 30 be ba ac 23 3e 6e 1c 16 be c4 9b 8b 3d
       -0.1727918 0.15983859 -0.14659283 0.06816819
000100 7c 23 ab 3c 23 fe 8a bd 50 49 eb bd e9 2f de 3c
       0.020890944 -0.06786754 -0.114885926 0.027122455
000110 00 39 13 bd c4 67 a1 3d 12 f5 e3 3c 95 fc 17 3d
       -0.03594303 0.0788112 0.02782682 0.037106115
000120 29 6c 21 3d d8 92 ce 3c 87 d4 9a b9 e8 e1 dc bc
       0.03940979 0.025216505 -0.00029531514 -0.02696319
000130 8f 37 ac bd 43 54 48 3d a2 b1 62 3c 5b ae 30 be
       -0.084090345 0.048908483 0.013836296 -0.17254011
000140 39 e7 42 3d c8 d9 a6 3c cc ac 78 3d 82 fb af bd
       0.047583792 0.020367518 0.060711667 -0.08592893
000150 93 e5 3c be 38 ee 03 be bc be f9 ba a3 e2 56 bd
       -0.1844695 -0.12883842 -0.0019054036 -0.05246223
000160 90 68 fd 3c 1f fb b6 3d b2 9f 72 bc f1 7b 5a 3d
       0.030933648 0.08934616 -0.014808582 0.053340856
000170 b5 15 32 3d 2b 57 6a bd 86 32 e4 3c 50 73 51 3c
       0.043477733 -0.057212036 0.027856123 0.01278384
000180 02 c3 59 3d d1 6f bf 3c 0a 63 1d be f2 26 29 be
       0.05316449 0.023368748 -0.15369812 -0.16518763
000190 95 14 8c 3b c2 de 15 bd 07 b4 14 b8 49 9b 32 3d
       0.0042749145 -0.03658939 -3.5453613e-05 0.043605123
0001a0 02 c0 cf 3d d1 d6 80 bd 32 a1 99 bd 3f 75 bb bd
       0.101440445 -0.06290973 -0.07501449 -0.09153222
0001b0 bc d0 c9 bd 03 a1 b7 bd 97 13 62 bd f3 10 86 bd
       -0.09854266 -0.089662574 -0.055194464 -0.065462016
0001c0 9a 04 0a 3e 75 20 4e bd 29 85 ec 3d a8 78 2a 3d
       0.13478318 -0.050323922 0.11548836 0.041618973
0001d0 5d 4f bf bd 4a dd c5 3b 20 1d b6 3b 77 f0 1b 3c
       -0.09341309 0.0060383426 0.005557671 0.0095177805
0001e0 70 48 68 bc 2e ce 03 be e4 84 37 bc f5 c6 81 bc
       -0.014177427 -0.1287162 -0.011201117 -0.01584194
0001f0 0b e0 0f bd f1 0f 8b bd 8e 3e 03 be 20 23 df bc
       -0.035125773 -0.0679015 -0.12816831 -0.027238429
000200 86 7d 04 3e 19 24 01 3c 27 fb 29 3d e1 f8 8a 3d
       0.12938508 0.0078821415 0.041499283 0.06785751
000210 ac 8b 39 3e 14 29 28 bd bd fb 89 3d 8d cc 28 bd
       0.18119687 -0.0410548 0.067374684 -0.0412107
000220 3e 95 33 3d c0 b0 85 3d b8 3c dc 3d ba 79 49 3c
       0.0438435 0.06527853 0.10753769 0.012297088
000230 4d 8c 8d 3d 37 db 13 bd 5f 2f a5 3c c5 46 1b bd
       0.06911526 -0.03609773 0.02016419 -0.037909288
000240 2d 22 2a 3c d2 6b 8c 3d a6 d8 1f bc 5b 31 4b bd
       0.010384125 0.068565026 -0.009756243 -0.049607616
000250 49 de 1d 3d 09 a1 04 3e 80 89 4b 3d d4 87 3c 3c
       0.038542066 0.12952055 0.049691677 0.011506993
000260 28 f3 12 3e 18 c1 6f 3d d2 21 47 bd 62 fc d5 3d
       0.14350569 0.058533758 -0.048616238 0.10448529
000270 c9 7a 7f 3b 51 9e 7f 3d 0f 63 aa 3c 44 1c d2 bd
       0.0038983098 0.06240684 0.020799188 -0.102592975
000280 f1 9e 39 3d bf 5b 15 b9 f0 e3 c9 bd 0a 9e eb 3d
       0.045317594 -0.00014243925 -0.09857929 0.11504753
000290 c0 00 cc bd 08 39 dc 3d 53 78 82 ba 15 cc 0f bc
       -0.099610806 0.10753065 -0.0009954072 -0.008776684
0002a0 3c 0d 9b 3d 12 c8 0a 3d 68 ba b6 bc 3c ee 01 3e
       0.07570884 0.03388221 -0.022305682 0.12688535
0002b0 00 63 f7 bc 3e 64 09 3e 65 32 a0 bd 05 4e bf bd
       -0.030198574 0.13417146 -0.07822112 -0.09341053
0002c0 0e 83 ed bb 50 73 56 3d 3c 40 f2 3d fc 65 f1 3d
       -0.007248289 0.052356064 0.11828658 0.1178703
0002d0 64 86 d1 38 99 c1 76 3d 40 12 47 bd 1b 08 fc bc
       9.990929e-05 0.060243223 -0.04860139 -0.030765584
0002e0 20 9c 73 3c 10 6e 0f 3e 9a 1d a4 bc a1 67 e9 bd
       0.014868766 0.1400683 -0.020033646 -0.11396719
0002f0 61 b6 dd 3d 0b 51 91 bd cb 80 81 3c d0 4f dd bd
       0.10825802 -0.07095536 0.015808484 -0.10806239
000300 0b 6c ac 3d 44 1d 56 3d 5b 0f 6b bd d8 12 57 bd
       0.08419045 0.052274004 -0.05738769 -0.052508205
000310 79 14 31 bd 20 68 a8 3c 53 4b 80 3d 96 f2 c9 bd
       -0.043232415 0.020557463 0.06264367 -0.09860723
000320 ba 04 ec bd fc 28 74 3d 5e 73 a4 bc fc 3f 14 3c
       -0.11524339 0.0596094 -0.020074543 0.009048458
000330 8b 49 bd 3c f6 c6 af 3c 4c b6 79 bc d3 f3 50 bd
       0.023106357 0.021457177 -0.015241217 -0.05101378
000340 29 97 ab bd 10 3e 01 be 18 c9 37 3d 55 03 bb ba
       -0.08378441 -0.12621331 0.044869512 -0.0014267961
000350 d4 dc b5 bd b6 48 a6 bc dd ef 72 be 38 59 d0 bd
       -0.0888001 -0.020298343 -0.23724313 -0.10173267
000360 4f fa 08 be fd e4 b5 3d 72 e5 2c be 01 c2 52 3d
       -0.13376735 0.08881567 -0.16884401 0.051454548
000370 71 4b 38 be 65 a1 14 bd ce 20 e1 3b b0 af a1 bd
       -0.17997529 -0.03628673 0.0068703657 -0.07894838
000380 d3 d5 a5 3c 32 84 9f bd 03 c9 26 bd 01 f3 a7 bc
       0.02024356 -0.07788886 -0.040719043 -0.020501615
000390 c7 a2 46 bd e3 3f a0 3c f9 8b cc bd 69 a8 23 be
       -0.04849508 0.019561714 -0.09987635 -0.15982212
0003a0 c7 21 bf 3d 61 45 1f 3c 35 0d 74 bc 38 4b 74 3d
       0.093326144 0.009721131 -0.014895727 0.059642047
0003b0 d0 e3 57 3c be 36 93 bd 8c 74 b5 bb 33 33 72 bd
       0.013176873 -0.071881756 -0.005537575 -0.05913086
0003c0 3c 4a 29 bd 02 bd e6 bc 31 0a 1a bc c8 7e c2 3c
       -0.04133056 -0.028166298 -0.009401844 0.023742095
0003d0 e5 62 c4 3c bf 90 1e 3d c2 cb d6 bd 47 cb 40 3d
       0.023972938 0.03871226 -0.104880825 0.04706886
0003e0 e8 6f 08 3d f8 11 85 3d 20 d8 2b bd 52 29 1c be
       0.033309847 0.06497568 -0.04195416 -0.15250137
0003f0 3f 3d 12 be e4 8a 88 bd c1 2d 3f bd b2 0b fa 3d
       -0.14281176 -0.06667116 -0.046674494 0.12209262

weight_hh_l0 f4 [256, 64]
000000 32 c8 22 3e 62 74 26 3d 35 e9 92 bd 3c 26 b7 bd
       0.15896681 0.040638335 -0.07173387 -0.089428395
000010 28 73 f5 3d 04 f1 81 bd 15 b1 d1 bd 93 b1 14 bd
       0.11984855 -0.06344798 -0.10238854 -0.03630216
000020 67 a6 0a be 31 ca 16 3c c4 b3 03 be 7e 01 fa bd
       -0.1354004 0.00920348 -0.12861544 -0.12207316
000030 07 99 51 3d 41 78 be bc 11 f2 62 bd a5 79 8b 3d
       0.05117133 -0.0232507 -0.055406634 0.06810311
000040 a6 3a b5 39 6c 35 9a 3d 70 2b ca bd 84 43 1e 3c
       0.00034566707 0.07529721 -0.09871566 0.009659652
000050 55 d9 d9 bd ae 05 f2 bd 83 c4 ae 3d 37 06 44 bd
       -0.10637156 -0.118174896 0.085335754 -0.04785749
000060 e0 8b c2 3d 87 21 38 3d 1a 81 fd bb c0 65 b2 3d
       0.09499335 0.04495385 -0.0077363374 0.087108135
000070 54 4a a6 bd 10 fe d3 bc e3 2f 83 3d 1d 12 cc 3d
       -0.08119646 -0.025877982 0.06405618 0.09964392
000080 b7 89 18 bd 19 1b 33 bd 99 7c 12 3d 6e 0d 09 3e
       -0.03724071 -0.043727014 0.035763357 0.1338403
000090 90 75 6d 3d 48 b5 05 bc 50 f4 91 bd 27 a1 20 bd
       0.057973444 -0.008160897 -0.07126677 -0.039216187
0000a0 2b e8 2e bd 2d 79 1a 3d 23 26 a9 bd 43 91 07 be
       -0.04270188 0.03771322 -0.08259227 -0.13239007
0000b0 49 9d a1 bc 63 6f a3 3c c7 48 83 3d bb 13 87 bd
       -0.01972832 0.019950574 0.064103656 -0.0659556
0000c0 65 6b fb 3d d8 c8 81 3d e5 64 a0 3c 58 fd aa 3d
       0.12276343 0.06337136 0.01957936 0.08349103
0000d0 ed 5b 13 be 70 e0 ed 3d 6c 83 c9 bd 78 16 08 3b
       -0.14390536 0.11615074 -0.0983952 0.0020765346
0000e0 30 49 62 bc 7b 44 89 bd f2 cc d8 bc f3 b2 30 3d
       -0.013811395 -0.06702515 -0.026464913 0.04313941
0000f0 67 c9 2f bd 40 aa 77 bd 22 a3 4c 3d 3f ea 9f 3c
       -0.04291668 -0.060465097 0.049960263 0.019520877
000100 a6 21 eb 3d 1c 2f b1 3d 64 72 8e 3d af d1 99 bd
       0.11481027 0.086515635 0.06955412 -0.07510697
000110 a4 c7 1e 3d 89 2d f7 3c 26 49 f5 3d de 63 6e bd
       0.03876461 0.03017308 0.119768426 -0.05820071
000120 e2 ba 09 3e a8 c4 92 3d 49 bc 92 3d 4d e0 aa 3c
       0.13450196 0.071664155 0.07164819 0.020858908
000130 2e f6 09 be 84 50 8f bd bc 8a fc bb ed 78 b5 bd
       -0.13472816 -0.06997779 -0.007706968 -0.088609554
000140 cc 2d 05 3e d9 b9 43 3e cf d2 06 3d 2f e6 0e 3e
       0.13005751 0.19113864 0.032915886 0.13954996
000150 64 74 dd bd 2a fc b2 bd f2 aa e0 bd 97 ed e0 3d
       -0.108132154 -0.08739503 -0.10970105 0.10982817
000160 81 90 3c be 7a 3e 01 3e e5 68 a4 bd bd 41 d3 3d
       -0.18414499 0.12621489 -0.080278195 0.10315273
000170 f3 e8 e6 3d ae 30 2d 3e 7e 90 de 3d 80 60 fc 3d
       0.112749 0.16913101 0.108674034 0.123230934
000180 49 7b ae 3d ab 4b 8e 3b 0f 59 d4 3c a4 eb a5 bb
       0.085196085 0.0043425164 0.025921373 -0.005063491
000190 41 cf 4b bc 3e d9 10 be 25 8a d2 bd fe 90 43 bd
       -0.01243955 -0.14145371 -0.10280255 -0.047745697
0001a0 f1 90 bb 3b c6 8f 04 3e 77 05 ba bd 05 96 f4 3c
       0.0057240655 0.1294547 -0.090830736 0.029856691
0001b0 27 1c 80 bd 83 a9 97 bd fa 21 db 3d 76 e2 bc 3d
       -0.0625537 -0.07405379 0.1069984 0.092228815
0001c0 2a 1a dd 3d 07 a7 35 bd 34 20 0f be c6 d4 72 3d
       0.10796006 -0.044348743 -0.13977128 0.059284948
0001d0 23 9b 0a 3b 90 55 b6 3c da dd 29 3e c0 5a 25 bd
       0.0021149598 0.022257596 0.16588536 -0.04036975
0001e0 e3 40 2a 3d 73 06 87 3d 9c 1a 3c bd b8 5d c0 bc
       0.041565787 0.06593027 -0.045923814 -0.023482189
0001f0 b2 59 a7 bd c9 5c 88 3d 70 70 d9 39 2d de 47 bd
       -0.08171405 0.06658322 0.00041473238 -0.048795868
000200 c6 e3 b8 3d 6e 91 f7 bb 88 7a fb 3b f3 7e 88 3c
       0.09027819 -0.0075551784 0.007674519 0.016662097
000210 5f c5 50 bd f8 07 55 bd cc a3 6a bd 3d 2a 22 3c
       -0.050969478 -0.052009553 -0.057285115 0.009897766
000220 84 9a 83 bd 7e ee 21 bc d5 5e d3 3d 02 6a 16 3d
       -0.06425956 -0.009883521 0.10320822 0.03672219
000230 8f b8 47 3e 64 94 0a 3d 51 6e 92 3d c4 fb 99 3d
       0.19503997 0.033832923 0.071499474 0.075187236
000240 23 1c 5f 3d cd df af bd de f9 32 3d 76 83 80 3c
       0.054470193 -0.085876085 0.043695323 0.015687685
000250 e9 ed 46 3c e3 30 ad 3d b8 77 85 bb 9a 4b 07 be
       0.012141683 0.0845659 -0.0040731095 -0.13212433
000260 6b 7e 44 3e f2 50 ae bd 89 0c da 3c f3 73 a7 3b
       0.1918885 -0.08511533 0.026617305 0.005110258
000270 36 da a9 bd d5 9b ca bd 48 f8 a9 3d b6 12 91 bd
       -0.082935736 -0.09893004 0.08299309 -0.07083647
000280 6b c6 3e 3e 68 11 70 bd f8 f3 d6 bd 25 5f 63 bc
       0.18630378 -0.05861035 -0.10495752 -0.013877665
000290 57 3a e5 bd e6 9e b9 bc d2 ee d2 bb 40 18 1f 3e
       -0.11192768 -0.022658776 -0.006437161 0.15536594
0002a0 f3 f6 1e bc de c5 ce 3c e2 ee 04 3e a8 bf 9c 3d
       -0.009702432 0.025240835 0.12981752 0.07653743
0002b0 29 b4 9a 3c 4e 59 fe bd 3d 73 14 be 9f b3 bd 3d
       0.018884735 -0.12419377 -0.14497085 0.09262776
0002c0 ee 33 b6 3d 1c 28 f4 bc 7a 4b 0a 3e 60 ea 78 bd
       0.088966236 -0.029804282 0.13505355 -0.060770392
0002d0 95 95 ca 3c 9c c7 87 bc e5 15 1d bd 64 34 b0 3c
       0.02472953 -0.016574673 -0.03835096 0.021509357
0002e0 16 ef cb 3c 4a b0 8b 3d 36 b1 d6 3d 3a 00 2e 3d
       0.024894278 0.06820734 0.10483019 0.042480685
0002f0 73 69 01 bd 85 2e 40 3e 3c b0 8f bd 40 68 db bd
       -0.031594705 0.18767746 -0.07016036 -0.107132435
000300 34 eb a3 bd 65 22 83 3d 87 64 8c bd 9e 72 de bd
       -0.08003846 0.064030446 -0.068551116 -0.10861705
000310 60 57 2c 3d d8 50 a5 bd ad ac b6 3d 25 17 16 3b
       0.042075515 -0.0807206 0.08919654 0.0022901979
000320 21 67 37 ba 7a 4f ea 3c 3f 95 28 be 8d 65 c5 3d
       -0.00069962634 0.02860235 -0.16463183 0.0963851
000330 73 02 e9 bb 16 45 6a be 0f e5 14 3d 9c b4 f8 bc
       -0.0071108877 -0.22877917 0.03635126 -0.030359559
000340 42 ca 3d bd 22 1a 7d 3e 67 02 73 3d 8d 93 9a bd
       -0.046335466 0.24717 0.059328463 -0.07547674
000350 a2 4c df bc 04 15 29 bd a6 19 22 bd 11 8c 9a bd
       -0.027258221 -0.041279808 -0.03957524 -0.07546247
000360 d6 94 a5 bd fa 88 a7 3d 1d 27 f1 3c b0 cc 11 bd
       -0.08085029 0.08180423 0.029437596 -0.035595596
000370 90 40 19 3e f3 ad d7 3d a0 70 6c bd 28 06 1e 3e
       0.14966035 0.10531225 -0.057724595 0.15432036
000380 45 7f c7 bd 7b 66 e9 3d 7a 8c a8 3d 31 83 22 3e
       -0.097410716 0.113965 0.08229919 0.15870358
000390 52 ee 08 bd e9 c8 3c be f3 96 85 bd f0 5d 9c 3b
       -0.033430405 -0.18436016 -0.06522932 0.0047719404
0003a0 0c 90 d6 bb 73 36 65 3d 0d 3e 94 3d 1d f7 eb ba
       -0.0065479334 0.05596013 0.07238398 -0.0018002723
0003b0 f7 b5 5a 3d 1f 49 67 bd 98 e9 7c bd a5 8b de bd
       0.05339619 -0.056466218 -0.06174621 -0.10866479
0003c0 a0 a9 0a bd bc b8 63 bd a7 2a 46 bc 99 5d 95 3c
       -0.033853173 -0.0555961 -0.01209513 0.018233107
0003d0 22 1d 81 3d a6 2b f0 bd 8e 8b 86 3e 4d ee e3 ba
       0.06304385 -0.11727075 0.26278347 -0.0017389745
0003e0 f6 71 6c bc 1f e5 03 bd 63 b9 44 bc 75 1e f4 3d
       -0.014431467 -0.03220093 -0.01200709 0.11919872
0003f0 1d 20 b0 bd ed 24 8a bc 86 df 8f 3b b7 b1 a6 3b
       -0.08599875 -0.01686331 0.0043906597 0.005087103

bias_ih_l0 f4 [256]
000000 8a 26 87 bb 0e 1b f0 bc 48 8e 12 3e 88 c1 72 bd
       -0.0041244673 -0.029309776 0.14312088 -0.059266597
000010 d7 23 19 3e b8 d9 ba 3a 36 b0 92 3d 7e c8 8b 3d
       0.14955078 0.0014255559 0.07162516 0.0682535
000020 ba 66 b5 3c b8 50 3f bd 65 d7 8c bc 79 10 9d 3d
       0.02214371 -0.04670784 -0.017192552 0.076691575
000030 23 48 55 bd 97 7f de 3c 2b 20 00 3e 26 aa 18 3d
       -0.052070748 0.027160449 0.12512271 0.03727164
000040 3c 9b d2 bd 39 9a cc 3d d8 c8 0f be 8e 57 05 bb
       -0.10283515 0.09990353 -0.1404146 -0.0020346376
000050 83 e9 9a 3d 6f 37 99 bc cc 28 4f bd e6 d2 0f be
       0.0756407 -0.01870319 -0.050576016 -0.14045295
000060 2e 77 c1 3d 72 59 b0 bb 85 e1 0a bc a2 1e 90 3c
       0.0944656 -0.0053817565 -0.00847662 0.017592732
000070 79 b1 98 3d 2f fa 01 3e 90 a6 a2 3c 21 b4 92 3d
       0.07455725 0.12693094 0.019854814 0.07163263
000080 dd 02 15 be a8 0a b5 bc b6 50 08 3b f4 2f ad bd
       -0.14551874 -0.022099808 0.002080006 -0.08456412
000090 c3 8f b9 bc 19 12 13 3e c0 d0 bd 3c 61 f8 01 be
       -0.022651559 0.14362372 0.023170829 -0.12692405
0000a0 f9 e3 84 bd 07 97 43 be 5d 62 1a be 39 95 ac bc
       -0.06488795 -0.19100581 -0.15076585 -0.021067249
0000b0 b6 c9 21 3c d1 ed a7 3d 34 1b 69 3d ee 5b 0e 3d
       0.009874752 0.08199657 0.05691071 0.03475564
0000c0 6e f9 61 3c d8 66 18 be a5 97 ee 3d 85 c9 bd bc
       0.013792379 -0.14882982 0.11650018 -0.023167381
0000d0 94 31 80 bd ae 77 b1 bd 64 40 29 3e f5 48 2f be
       -0.06259456 -0.08665405 0.1652847 -0.17117675
0000e0 3e 6d 8e 3d 2b 86 8e bc c2 d3 5a 3d f1 e8 74 3c
       0.0695443 -0.01739796 0.053424604 0.014948116
0000f0 0b ca 09 be 70 72 ff 3c 5f 9b df bd ba 71 24 be
       -0.1345598 0.031182498 -0.109183066 -0.16059008
000100 3f e9 a5 3d 88 24 c9 bd e3 49 86 3d c8 dc ab bd
       0.08101129 -0.09821421 0.065570615 -0.0839172
000110 9a 03 df 3b 80 a3 10 3d 0f f4 c7 3d 19 5d df bc
       0.0068058493 0.035312176 0.09763347 -0.027266072
000120 fd 64 d1 bc 12 4c 6c bd 48 dd 0e 3d da df 94 bb
       -0.02556085 -0.057689734 0.034879 -0.0045432867
000130 28 22 96 bd bd a4 07 be a1 5e 53 bd 26 05 1c 3c
       -0.073307335 -0.13246436 -0.051603917 0.009522712
000140 4a 6b 6a bd c6 84 80 bd 72 ab 84 bd 3c 85 4c 3c
       -0.057231225 -0.062753245 -0.06478013 0.012482937
000150 1a 6f e4 3d 42 d9 5c 3d 23 61 57 3d 7e 9b 75 bd
       0.111540034 0.05391813 0.05258287 -0.059962742
000160 f1 7d ae bc 40 04 98 bc be 1d 5e 3c 54 4d cc 3d
       -0.021300288 -0.018556714 0.013556896 0.09975687
000170 57 d8 33 bd 84 08 ff bd 3a bc c0 3d cf cc 59 3d
       -0.04390749 -0.12452796 0.09410901 0.053173836
000180 23 85 c6 3d 98 89 4a bd 0a 64 c6 3d f2 85 ff 3d
       0.096933626 -0.049447626 0.0968705 0.1247672
000190 53 d2 0c 3e 5a e6 3c 3c 72 00 35 be 4d 80 4a ba
       0.13752107 0.0115295295 -0.17675951 -0.0007724807
0001a0 8d 3e cf bd 52 c1 e3 bc f8 f0 42 bd 59 06 02 be
       -0.101193525 -0.027802143 -0.047593087 -0.12697734
0001b0 c1 27 1d bc 70 71 b2 bb 12 4c ec bc 2f 06 df bd
       -0.009591998 -0.0054456517 -0.028844867 -0.10889851
0001c0 e7 89 18 3e a0 3a 55 3d 5a d9 b2 3d 7d bf 8f bc
       0.14896356 0.052057862 0.08732863 -0.017547363
0001d0 5e d7 02 3e de 99 9a bd d8 0b 50 3e d9 3f a3 bd
       0.12777469 -0.07548879 0.20317018 -0.07971162
0001e0 e0 27 60 3c 18 c3 05 3d 42 cb 60 bd 73 26 9a bd
       0.013681382 0.03265676 -0.05488134 -0.07526865
0001f0 cc 3c 49 3d b9 bb 95 bc fa 77 08 3e 1d 99 f9 ba
       0.049130246 -0.01827799 0.13327017 -0.0019042824
000200 de 76 c4 bb 09 8b 85 3d 40 4c 45 bd 00 bb 34 3d
       -0.0059956154 0.065206595 -0.04816842 0.04412365
000210 04 56 eb bd 10 34 4a bd 8f 55 35 bd b2 72 68 3c
       -0.114910156 -0.049366057 -0.04427105 0.014187502
000220 a3 11 0b 3d a4 8a b9 3d cb 1e e1 bd 10 7a 8b 3d
       0.033952367 0.09059647 -0.109922014 0.06810391
000230 9d a4 97 3c 2f 22 bd bd a6 1b e3 bc 39 a1 da bc
       0.01851111 -0.09235036 -0.027723145 -0.026688205
000240 a7 62 a8 3d 3d 1d bd 3d 2b 53 96 3d 21 51 b1 3d
       0.082219414 0.092340924 0.07340082 0.08658052
000250 f6 27 d7 3b 7f 74 9c bd a7 f2 c5 bd 88 52 fd bc
       0.006566043 -0.07639407 -0.09665423 -0.030923143
000260 3e 34 b4 bd 90 6d ac bd fa 67 2b 3d b7 6e 82 3c
       -0.08799027 -0.08419335 0.041847207 0.015921934
000270 3b 7d b7 bd 15 d1 9b bd 26 2e 81 3d 27 7c e8 bd
       -0.08959433 -0.076082386 0.0630763 -0.11351805
000280 e0 b5 b7 bc a8 9b a3 bd bd 29 d7 3d a8 4e 36 3d
       -0.022425592 -0.079886734 0.10506008 0.044508606
000290 a3 35 8a 3d 45 35 82 bd f2 5c d3 bd b8 12 ef bd
       0.06748512 -0.063578166 -0.10320462 -0.11673492
0002a0 ed 3e b3 bd cd 90 a2 3d 2e 89 b8 bd d6 df aa 3d
       -0.087522365 0.07937775 -0.0901054 0.083434746
0002b0 1a f6 a2 3b 6a 1c a6 3b c8 e6 04 3d e2 4f af bd
       0.0049731852 0.005069305 0.032446653 -0.08560158
0002c0 49 5b 85 bd 3c 6c b6 3d d5 cb 88 3d bc d3 ae bd
       -0.06511552 0.08907363 0.06679503 -0.08536479
0002d0 10 c5 62 3d f9 46 5d bd 12 b4 b2 3c bb 2e 77 3d
       0.055363715 -0.054022763 0.02181438 0.0603473
0002e0 28 2c ca 3d 85 f1 b3 bc 28 df ee 3d a5 05 4e 3d
       0.098717034 -0.021965751 0.116636574 0.05029835
0002f0 59 3b 78 3c 97 7c f5 bd 42 e1 2a bd 36 dd f7 bd
       0.015150868 -0.11986654 -0.04171873 -0.121027395
000300 6b f7 a7 3d d6 f1 6e bd c3 2a 1a 3e c6 ae 26 be
       0.08201488 -0.0583361 0.15055375 -0.16277608
000310 0c d4 55 bc b4 c6 d6 3c 1a 33 71 3d 6f 22 cd 3d
       -0.013051044 0.026217796 0.058886625 0.10016333
000320 19 ab d2 bd 6a d4 bd bd 90 62 05 3d 8c e3 eb bd
       -0.102865405 -0.092690304 0.0325647 -0.115180105
000330 4e 43 3c 3d 8f 9c 79 bc 60 28 de 3d 17 6d c9 3d
       0.045962624 -0.01523508 0.10847545 0.0983526
000340 f1 35 ca 3d 15 b4 93 3d 04 7d 66 3c f3 a8 e8 bc
       0.0987357 0.07212082 0.014067892 -0.028400874
000350 3a 99 7a 3d 03 40 83 3d f4 59 d9 3c 2b e8 36 bc
       0.061181284 0.06408694 0.02653215 -0.011163752
000360 1d ee 93 3d e8 39 e8 3d c3 0f 35 3d 44 f1 4e 3d
       0.07223151 0.1133917 0.044204485 0.050523058
000370 b0 e4 c5 3c f8 4f ae bd c1 50 6b bd cd 96 2c bd
       0.024156898 -0.085113466 -0.05745006 -0.042136002
000380 87 3b c9 3a e7 a8 b0 39 45 a1 ec bd dc ab 1f 3d
       0.0015352824 0.00033695178 -0.11554197 0.038982257
000390 85 21 07 3d 2c c7 33 3e b4 2c c0 bd 67 20 c9 bd
       0.03299095 0.17556447 -0.093835264 -0.098206334
0003a0 dc d3 ff 3a 33 ff 09 be 58 cb fd bd 5b 8f 1c bd
       0.0019518095 -0.13476257 -0.123923 -0.038222652
0003b0 e1 2f 8f bd fa 8a 06 be d6 a6 1c be a1 c3 5f bd
       -0.06991554 -0.13138953 -0.15298018 -0.054629926
0003c0 b6 fd a4 3d b2 c8 37 bd 6d 87 6d 3d 18 14 65 bd
       0.08056204 -0.044869132 0.05799048 -0.055927366
0003d0 8b c1 ec 3d 30 2d ad bd b0 41 8c 3d b2 83 2b be
       0.11560353 -0.084558845 0.068484664 -0.16749457
0003e0 ee 03 3f 3e 97 38 7e 3d 5b 6d 4b bc a4 89 15 bd
       0.18653843 0.062065687 -0.012416209 -0.036508217
0003f0 2a 8a ff 3a 52 2d df 3c c1 74 d1 3d 19 a8 09 3c
       0.0019496132 0.02724329 0.10227347 0.008401894

bias_hh_l0 f4 [256]
000000 a2 fb 1c bd e5 88 9a bc 30 47 ab bc 63 cf 85 bd
       -0.038325913 -0.018864105 -0.020907968 -0.065336965
000010 69 38 b2 3d 3d f8 e1 3d f4 2b f6 bc 20 dc d5 bd
       0.08702166 0.11033676 -0.030050255 -0.10442376
000020 62 68 c1 3d 1d e8 b0 3d ef b6 25 3d f9 28 75 3d
       0.094437376 0.08638022 0.040457662 0.059853528
000030 f1 0b e6 3d e3 11 1e be 26 5b 74 bd e1 2f 13 3d
       0.112327464 -0.1543651 -0.05965724 0.035934333
000040 88 5a b3 bc de df d4 bc 5e 6a ad bd 66 89 8c bd
       -0.021893755 -0.025985654 -0.084675536 -0.06862144
000050 0a 50 f7 3d 03 17 fd bb 0c b5 39 bd 5f 04 88 3d
       0.12075813 -0.0077236905 -0.045338675 0.06641459
000060 33 24 ce bd 19 c7 f4 bd de 02 81 bd 2c 83 f6 bc
       -0.10065498 -0.11952037 -0.06299375 -0.030091844
000070 b9 ab 9a 3c e0 9b 78 3d ae 83 b8 bc 13 0a a5 bc
       0.018880712 0.06069553 -0.022523727 -0.020146405
000080 df 01 cf bd a5 51 30 bc b5 d2 16 3d 20 dd a0 3c
       -0.10107779 -0.010761653 0.03682204 0.01963669
000090 4a cd 21 bd 28 63 ac 3d 04 5c aa bc c3 cc b9 bd
       -0.03950242 0.0841735 -0.02079583 -0.09072258
0000a0 ee 5a 01 3d e3 41 6b bc 6b af df bd e7 63 fe 3d
       0.031580858 -0.01435897 -0.1092213 0.124213986
0000b0 03 70 1c be 5f 1f 44 bd 1e 4e 9d bd dd 50 87 3d
       -0.15277104 -0.04788148 -0.07680915 0.0660722
0000c0 fd 1f 0a 3d 41 05 59 3d 1f 8b e4 3d 07 63 e6 bd
       0.033721913 0.052983526 0.11159348 -0.11249357
0000d0 fc e3 81 bd 46 c5 94 3d 58 4b 12 bd 6c 77 3d be
       -0.06342313 0.072641894 -0.035716385 -0.18502587
0000e0 be c8 74 bd bf 66 61 3d 56 7c c4 3d 1a b9 64 3d
       -0.059761755 0.055029627 0.09594028 0.05584059
0000f0 84 96 08 bd 0a 9b e1 bd 11 65 b8 bd 16 5c bf 3c
       -0.033346668 -0.110158995 -0.09003652 0.02335934
000100 87 6a c6 bb 1c 0f d6 3d 0f d4 80 3d 7a 63 da bc
       -0.0060551795 0.10452101 0.06290447 -0.026658762
000110 be f8 c6 3d f6 2c 63 3c e5 27 06 bb c2 e4 f0 bd
       0.097154126 0.0138657 -0.0020470556 -0.11762382
000120 1b ee 84 3c 19 e1 d0 3c 2a 9e 4e 3d c4 26 57 3d
       0.016226819 0.02549796 0.050443806 0.052527204
000130 6d 34 c0 3d af ae a3 bd a6 f8 7c bc ee 77 cf 3d
       0.093849994 -0.079923026 -0.015440142 0.10130297
000140 84 9c 8b 3c e7 e8 22 3d 2d 10 05 be d9 a4 de bd
       0.017042406 0.039772894 -0.12994452 -0.10871286
000150 59 8b 48 3a a3 0a 77 3b 92 80 bf 3d 05 7a c2 bd
       0.0007650159 0.003769555 0.09350695 -0.0949593
000160 99 c1 1c 3d 3c 4d 1e bd 67 63 95 bc b5 6a ec 3d
       0.038270567 -0.038647875 -0.018235875 0.1154379
000170 a5 8d b0 bd e7 d2 a9 3d 8d 26 50 3e be bb eb bd
       -0.086207666 0.082921796 0.20327206 -0.11510418
000180 60 79 03 be 1c 2e 86 bc 24 68 23 3d 76 d7 e5 bd
       -0.1283927 -0.016379409 0.039894238 -0.112227365
000190 d4 ae 8c 3d e4 0c 6c b9 29 bf b5 bc c6 00 ef bd
       0.06869283 -0.00022511516 -0.022185879 -0.116700694
0001a0 fa 9c 4d bd e0 16 58 bd 05 37 32 bd 11 98 30 3d
       -0.050198533 -0.05275619 -0.043509502 0.04311377
0001b0 41 e9 f9 bc 2e a5 de bd 24 da 9f bd 27 99 ce bb
       -0.030506732 -0.10871349 -0.07805279 -0.0063048783
0001c0 79 a4 0d 3e 36 08 82 3d 93 92 b9 3d 77 f4 f4 bd
       0.13832273 0.06349222 0.0906116 -0.119606905
0001d0 ac a9 a0 3d 89 2d 0f 3d 04 0b 24 3e 96 77 12 be
       0.07844862 0.034955535 0.16019827 -0.14303431
0001e0 a3 84 22 3e 87 8f 45 bd 05 88 8b 3c 22 5a 22 bd
       0.1587091 -0.04823258 0.017032633 -0.03963674
0001f0 47 55 00 3e 27 0a c2 bd 41 d7 06 3e f8 c2 59 bb
       0.1253253 -0.09474593 0.1316805 -0.0033227783
000200 87 e8 85 3d da fd 23 bd e4 7e 03 bd db f0 04 bd
       0.06538492 -0.040037014 -0.032103434 -0.03245626
000210 f9 7b 4b 3d 7e 21 a4 bd 1c 19 d8 3c 25 cf d8 bd
       0.049678776 -0.08014201 0.02637916 -0.10586385
000220 4b 36 a3 3d cb a1 44 3d ae 29 01 bd 4e d0 be bb
       0.0796934 0.04800586 -0.03153389 -0.0058231717
000230 92 fb 90 3c e4 ba 79 3d 74 43 8b bd 18 32 89 3d
       0.017698083 0.06096925 -0.06799975 0.06699008
000240 33 a6 4f 3b 45 18 6f 3d d9 54 3c 3d fa bd 34 3d
       0.0031684756 0.058372755 0.045979355 0.04412649
000250 01 67 fd bc f5 29 ef bd 79 d9 ab bc 63 f9 ba bc
       -0.030932905 -0.116779245 -0.020977722 -0.022823995
000260 24 34 89 bd bd fe 3d 3d ae 05 d4 3c 60 f2 be 3d
       -0.06699398 0.046385515 0.025881615 0.09323573
000270 90 cf ef 3c 79 5b ab 3d 81 16 e6 bd 91 58 0c be
       0.029273778 0.083670564 -0.11234761 -0.1370566
000280 39 6d 23 3c df 69 77 3b e7 51 c1 bd 9c 79 0c bd
       0.009974771 0.0037752313 -0.0943945 -0.034295663
000290 f9 e0 68 3d f6 b8 f5 3d a7 cf 52 3d 6d 5c 01 be
       0.056855176 0.11998169 0.051467564 -0.12632914
0002a0 47 c0 dd 3d 66 6f 22 3d 90 9c 8e bd d1 f2 cb bc
       0.108276896 0.03965702 -0.06963456 -0.024896057
0002b0 78 ba 5d bd a0 19 8b bd 4b d1 83 3c ec 56 6a 3c
       -0.05413291 -0.06791997 0.01609101 0.01430295
0002c0 34 59 5a bd 1e d1 90 3b db 7f c6 3d 8d d1 d7 bd
       -0.053307727 0.00441946 0.09692355 -0.105380155
0002d0 49 7f 8d 3c af 8e 41 3d 09 c3 d4 3d 55 b0 8b bd
       0.017272608 0.047255214 0.103887625 -0.06820742
0002e0 01 e6 c4 3d ac a2 ea 3d ae 3a 39 bd 36 e9 78 bd
       0.09614182 0.114568084 -0.045221977 -0.060769282
0002f0 ca 4b 86 3d 0f ff a6 bc 65 c6 bd bd 04 ca 97 3d
       0.06557424 -0.020385293 -0.092663564 0.07411578
000300 86 80 eb 3d 24 9c a3 bd 82 28 99 bc ad e8 c6 bd
       0.11499123 -0.07988766 -0.018696073 -0.09712348
000310 32 a8 1d 3d 7a 60 9e 3c 4c 5b 2f bb 50 e8 26 3d
       0.03849048 0.019333113 -0.0026757298 0.040748894
000320 8d 67 ca 3d 86 3a 75 bc 1e 6a a9 bc 4f 1e 99 3d
       0.09883032 -0.014967566 -0.020680483 0.07476484
000330 20 b1 b8 3d 38 c3 ba 3d f8 0a b9 3d b4 9b d3 3d
       0.09018159 0.09119266 0.09035295 0.103324324
000340 8f 5e 8b bd 85 c9 c8 bd 96 42 b8 bd 16 20 e1 bd
       -0.06805145 -0.09804062 -0.08997075 -0.10992448
000350 57 8e 95 bc a0 9b fd 3c fd b6 a4 3d 95 bc 38 bd
       -0.01825635 0.030957997 0.08042715 -0.04510172
000360 c2 cf f2 bd 9a ce 3b bd 17 8d 35 be 16 f7 de bd
       -0.11856033 -0.045851327 -0.17729603 -0.10886972
000370 5d 4d 09 bd 8d 3c eb 3c 4d a3 00 3d 63 b5 3c bd
       -0.033521045 0.028715396 0.031405736 -0.04607142
000380 69 b6 bc bd d4 4e 09 3e 07 25 b9 3d ec e9 e3 bd
       -0.092144795 0.13408977 0.090402655 -0.111286014
000390 33 0b ca bc 39 43 ac 3d c6 08 ab 3d 59 79 8d bd
       -0.024663543 0.08411259 0.08351283 -0.06907911
0003a0 54 f2 b1 3d b7 bd 5a be 74 9a 26 bd ea 5e 9f bc
       0.086887985 -0.21361433 -0.04067464 -0.019454438
0003b0 cc 17 11 bc 0c d5 2b bd ab 73 36 3d 83 2c d4 bc
       -0.008855771 -0.041951224 0.044543903 -0.025900131
0003c0 8f 00 83 3d 6e 38 bc 3d 96 5b a0 3d f4 56 ae bd
       0.06396591 0.091904506 0.07829969 -0.08512679
0003d0 7c 55 4e 3d f9 f9 d6 3d 34 b7 0a 3d 1a a9 83 bd
       0.050374493 0.10496897 0.033866122 -0.06428738
0003e0 3f 64 22 3e b6 5c 85 3d 23 07 d8 bd b8 b2 00 3e
       0.15858553 0.06511824 -0.10548236 0.12568176
0003f0 b2 f5 ad bd ce e2 de 3c 81 6b 25 bc d4 17 1a be
       -0.08494128 0.027207758 -0.010096432 -0.15048152

weight_ih_l1 f4 [256, 64]
000000 fe 69 6c bc d8 f8 bc 3c 32 99 83 3b fb cc 31 bd
       -0.014429567 0.023067877 0.004016065 -0.043408375
000010 e5 26 06 3e 3c 05 95 bb cf c0 d4 3d 08 9d 93 3d
       0.13100775 -0.004547743 0.10388338 0.07207686
000020 42 a5 f9 3d 73 50 ae 3b 70 ab 04 be 52 bf aa bc
       0.121897236 0.005319649 -0.12956023 -0.020843182
000030 ed 79 c1 bb bf 7b af bd 6f fe a3 3c b3 ec 78 3d
       -0.0059044273 -0.085685246 0.020018784 0.06077261
000040 c4 56 4b bd f3 f3 10 3e 06 bb 95 bd 9e 9d 99 bb
       -0.049643293 0.14155559 -0.073110625 -0.004687979
000050 32 70 0f be 61 35 79 bd 45 01 ee bd 24 da fb bc
       -0.14007643 -0.06084192 -0.11621336 -0.030743666
000060 fe d4 0d bd ef bb fa bd 24 0d 6d 3d 87 2a 27 bd
       -0.034626953 -0.12242877 0.05787386 -0.04081204
000070 6f c9 6b bd d6 c0 b7 3b d2 62 a3 3d 0c 47 bd bd
       -0.05756515 0.0056077046 0.07977833 -0.09242067
000080 62 5e 1b bd 4b 34 29 3c 4b c0 cf 3c 2c 4b 7f 3c
       -0.037931807 0.010327409 0.025360247 0.015581887
000090 42 98 06 be 16 19 bd bd 5f ee 9b 3d 11 64 2f bd
       -0.13144019 -0.092333004 0.07613825 -0.04282004
0000a0 52 29 fd 3b a6 05 96 3d 53 0e 6b bd 12 6d bd bd
       0.007725873 0.07325296 -0.057386708 -0.09249319
0000b0 fa 96 0f be 01 d6 cb 3a 11 43 32 3c 32 f7 8b 3d
       -0.14022437 0.0015551449 0.010880248 0.06834258
0000c0 9e 26 ae bc 11 e1 1e bc f1 76 ef bc 23 ca 16 3e
       -0.021258648 -0.009697215 -0.02923152 0.14725547
0000d0 dc ab af bd 1b 4a f8 bd df 5b 67 3d 18 1e 0c 3d
       -0.085777014 -0.121235095 0.0564841 0.034208387
0000e0 df cb 63 bd be b3 b1 3d 8f 92 6d 3b 0f 0a 7a bc
       -0.05561435 0.08676861 0.0036250686 -0.015261187
0000f0 2e 5d 09 be 0e f7 5f bd 11 86 ac bd 1e 5e 04 3e
       -0.13414451 -0.05467897 -0.08424009 0.12926528
000100 49 d3 f9 3d b2 48 cf bd af 5f 5b 3d aa 0d 12 3d
       0.121985026 -0.101212874 0.053558048 0.035657562
000110 ed 4b a0 bc e1 d4 fe 3d 8d b8 9d bd 05 d3 cc 3d
       -0.019567454 0.12442947 -0.07701216 0.10001186
000120 8a 2c 03 3e fa 87 7d bd bd 4e a6 bd 2a 94 51 3c
       0.12809959 -0.061897255 -0.08120487 0.012791673
000130 44 56 d5 3d 2e 7a 53 3c c4 b7 0e 3d f6 3b ab 3d
       0.104168445 0.012907548 0.03484322 0.08361046
000140 83 ca 38 3d ac a5 5f 3d f9 1f 0c bd f8 1a b0 3d
       0.045115005 0.054601356 -0.03421018 0.08598894
000150 ec fa 36 bd 90 d5 55 3d 5b 1b 32 3d a8 e5 80 3a
       -0.04467289 0.052205622 0.04348312 0.0009834068
000160 3f 8b 10 be 92 e8 c2 bd f9 30 f7 3d 05 b5 ac 3c
       -0.14115618 -0.095170155 0.12069888 0.02108241
000170 cd 3b ee 3d 54 25 c5 3d 13 39 31 3e ef 9a c6 bb
       0.116325 0.096262604 0.17306928 -0.00606095
000180 62 e4 c2 bc 9a cf bd bd 8f 89 81 3d 14 67 30 bd
       -0.023790542 -0.092681125 0.06325065 -0.043067053
000190 3f ff 24 3d 5d 24 09 be 24 59 d4 bd dc e1 33 bd
       0.040282484 -0.13392778 -0.10368565 -0.04391657
0001a0 db a3 69 bd 5e 05 f9 3d 59 d1 d7 3d 48 41 1a 3c
       -0.05704103 0.12159227 0.10537977 0.009414978
0001b0 21 15 9f 3b 1c 3a be 3d bc 34 23 bd e5 bc 88 3d
       0.0048548137 0.09288427 -0.039845213 0.06676654
0001c0 46 01 fa 3d 22 11 48 bd af f0 9a 3d 28 82 08 3e
       0.12207274 -0.048844464 0.07565438 0.133309
0001d0 e5 86 f3 3b e1 a1 87 bc e2 22 4b bd 5c f1 df 3d
       0.007431852 -0.016556682 -0.049593814 0.109347075
0001e0 6a 13 a2 3d 30 a6 00 be 14 8a 87 bd dd 31 90 3d
       0.07913859 -0.12563396 -0.06618133 0.07040761
0001f0 2e c0 85 3c 99 32 a3 bc 33 44 1f bd 72 bc 04 bd
       0.01632699 -0.019921588 -0.0388834 -0.032406278
000200 7c c2 b6 bd b4 15 d1 bc d8 aa b5 3d 1a f7 b2 bd
       -0.08923814 -0.025523044 0.088704765 -0.08738537
000210 2a 62 f6 3c 00 79 50 bd 9d d5 98 3d 8f 9c b3 3b
       0.030076105 -0.050896645 0.074626185 0.0054813097
000220 55 03 28 3d e4 62 b1 3d 0f 46 e0 bd bd 8a 20 3d
       0.041018803 0.0866144 -0.109508626 0.03919481
000230 42 d9 32 be 84 cc 23 3d 0f 3e 72 3d de 35 c1 bc
       -0.1746569 0.039989963 0.059141215 -0.023585256
000240 2d a9 96 3d 76 1b 06 bc 85 17 4c 3d 05 d5 28 3d
       0.073564865 -0.008185258 0.049827117 0.041218776
000250 81 6c 24 3e 72 2b 29 3d 5e 79 4b bc b9 21 a2 bd
       0.16057016 0.0413012 -0.012419073 -0.07916588
000260 54 07 21 3d 9c af be bb 9e 53 e2 3d 70 a5 f1 3d
       0.03931363 -0.005819274 0.11051105 0.11799133
000270 47 9b ff 3d a7 a4 01 3d 4a 37 86 3d c7 39 7b bd
       0.12480789 0.031651165 0.06553514 -0.061334398
000280 79 99 71 bd c5 33 f4 3b 0f 32 2a 3e 9d ce 08 be
       -0.058984254 0.0074524605 0.16620658 -0.13360067
000290 38 58 27 3e 65 d6 a0 bc 99 d4 09 be 04 15 53 be
       0.16342247 -0.019633481 -0.13460006 -0.20613486
0002a0 72 ee 79 3d 99 c4 8a 3d e4 6f 5a 3d 01 55 59 3c
       0.061018415 0.06775779 0.053329363 0.013264895
0002b0 9f 50 36 bd 0a 63 6d 3d f8 1f a3 bd 60 a9 dd bc
       -0.04451048 0.05795578 -0.07965082 -0.027058303
0002c0 5e a1 37 be 0a 7e 07 3e bf 2e 2b 3c e0 44 fc bd
       -0.1793265 0.13231674 0.010448157 -0.12317824
0002d0 ca b0 8a 3d 92 d1 f1 3d 98 53 ca 3d 15 f5 fe bc
       0.06772001 0.118075505 0.098792255 -0.031122724
0002e0 59 61 1e 3e cb 84 f4 bc 96 19 6d bc a4 ed b6 3d
       0.15466823 -0.029848477 -0.014471432 0.08932045
0002f0 2e 94 c3 ba fa 22 6b be f6 e3 96 bc 1d b0 d1 3d
       -0.001492148 -0.22962561 -0.018419247 0.10238669
000300 bf ad 0f 3e 0a 88 08 bc 4d 3b 0e be 7b aa 94 bd
       0.14031123 -0.0083332155 -0.13889809 -0.07259079
000310 17 32 ce 3c 33 30 c0 bd 0f 87 83 bd f3 86 15 bd
       0.02517037 -0.09384193 -0.06422245 -0.03650565
000320 0b 99 90 bd 8d d4 94 bc 4c fe 8c 3d 61 73 c1 bd
       -0.07060441 -0.018167758 0.06884441 -0.09445835
000330 cd e1 1d 3e 93 6d 0c 3c 06 a0 e4 bd e7 dd d9 3d
       0.15418167 0.008571046 -0.111633345 0.10638028
000340 47 75 fd 3d 6b 57 e6 bd 3b c0 b1 bd 0f f2 88 3d
       0.123758845 -0.112471424 -0.08679243 0.06686794
000350 76 cf 91 bd 20 c4 89 bd 85 7b ca 3d 3c 09 0d 3b
       -0.07119648 -0.06726861 0.09886841 0.0021520397
000360 ea df a3 bd e1 58 be 3d 3d fa 9f 3d 64 ca 81 bd
       -0.080016926 0.09294296 0.07811401 -0.06337431
000370 02 68 ca bd 7a a8 9b bd e3 09 15 3e 80 e3 a3 3d
       -0.09883119 -0.07600494 0.14554553 0.080023766
000380 dc 46 ce bd 04 2e 87 3d 6b fe 1c bd fd 1b 11 bc
       -0.10072109 0.06600574 -0.03832857 -0.008856771
000390 5d 41 e0 3d f9 9f 84 3d 3a 06 9d 3d 97 09 da bc
       0.10949967 0.06475825 0.07667203 -0.0266159
0003a0 f1 e2 68 bb b0 11 31 3b c6 47 cd 3d 71 1b b6 bd
       -0.0035535658 0.00270186 0.10023455 -0.08891953
0003b0 69 cb f3 bd ca ef 9a 3d 9e 3e 59 bb d9 26 d0 3c
       -0.11904032 0.075652674 -0.0033148895 0.025409149
0003c0 57 fc a5 bd f9 2d 03 3c 9e db 07 3d 42 6a 00 3e
       -0.08104771 0.008006566 0.033168428 0.12540534
0003d0 6e 0f 98 3d 94 b5 44 bd c1 65 e8 bd 11 1a d3 bd
       0.07424818 -0.04802473 -0.11347533 -0.10307706
0003e0 ce 95 f0 bd 25 43 29 3d 0e 42 94 3d 01 6b a0 3d
       -0.11747323 0.0413238 0.072391614 0.078329094
0003f0 ea cc e9 bd 41 7b 4d 3d 24 ea c1 3d a9 78 e8 bd
       -0.114160374 0.050166372 0.09468487 -0.11351139
